project_models/mlp_bsq_model.pth (torch, 239009 bytes, 25 tensors)

network.0.weight f4 [256, 46]
00000000: 32e3 c5bd f6ea 513d e886 9bbe 7bd1 c53d
00000010: 9010 093e e98d ca3c 3f6b 653c 9e93 5ebe
00000020: 6f2c debe 66c8 513c 08ea 44bd e700 1d3e
00000030: cd97 29be cb88 a63d ec68 d23d 8094 5dbe
00000040: 58ca 133c 78c9 20be efd8 0dbd c4a4 983e
00000050: 2be2 f0bd db92 363e f31f 99be 8e57 15be
00000060: 8ade 883d 270c 843e 3cd0 9c3e a8b4 093f
00000070: fd50 dabd 64a8 21bd 0539 47bd 59b6 b23e
00000080: 0ee6 53be 2b78 c9be 7aed 65bd 43e0 cfbd
00000090: 5cbf 093d c8fc 9b3e 27dc b5be 3927 b4bd
000000a0: 5cc5 73be ed76 083e caa6 c53d 4c71 0abf
000000b0: b7c0 f7be f501 40be 33b2 fbbc 9286 10bd
000000c0: 92e1 623e 13be 9b3e 18de 81be df78 3d3c
000000d0: 3052 13be 985a 01be 4c6d 12be 1dc3 ddbe
000000e0: f568 0f3f 8f89 adbc 6946 9ebe 4d61 1abe
000000f0: 27b0 e5bc 715f 263e 28cb 0dbe 934c 8cbd
00000100: f29e 283e 6683 f4bd f79d cbbe dc7c 0d3d
00000110: 2ee7 4d3e fea9 863d 5112 293e 3adf bf3e
00000120: c02e cf3e 6887 66be c6a0 8c3c 1267 f7bd
00000130: 6008 523e 2fd3 04bf 6e81 213e 3b92 89bd
00000140: 5871 bfbd bc89 a5be b906 b53e 3a3f 4b3e
00000150: 4df9 d93e 078e 0a3e a23a 183e 4683 81be
00000160: 51ee 3c3d c276 ce3d be20 a3bd 7cae db3d
00000170: dadf 903e 599c 023e 81b3 023e b0f5 ccbc
00000180: 1f07 ef3c cb6a 95be 84aa 633e 8d5e b3bd
00000190: b3e2 b9be 0650 ca3e 82e0 643d 380e dbbe
000001a0: aa39 c4bc 3e61 aa3c 6353 b8bd cbd4 47be
000001b0: 3c6d 06be 4d31 c9be 52c4 05bf f5b4 af3e
000001c0: c79c b53d 48b4 b1be 5c04 00bf 5058 0b3d
000001d0: 83ce b3be f83b 7cbd 2114 513e c733 0d3b
000001e0: 2f67 94bd 7263 06be 123a 043e 2b9b 8f3e
000001f0: 0ffc 763e 52e6 7e3e 0372 193d e1e5 663c
00000200: 8a33 483e d4d7 e2be 07de acbd 29a0 57be
00000210: 25c9 97be 5457 11bc 6582 0bbe b864 b13d
00000220: 30ed 3d3c 277e 49be 014f 4f3e 6626 1b3e
00000230: c4f7 9d3e b557 553e f8e5 e7bd 3289 93be
00000240: d7f7 27bf 8cf8 c03c f888 7f3e 13e2 fdbd
00000250: c07b 933e e7ea 553e 15e5 acbb 0d9f 32be
00000260: 2330 653e 6878 133e 04a0 003d c592 143d
00000270: 1e35 d5bd 59c1 de3d 705d 18bd 068c 92be
00000280: ef7c b9be e07b cabd 6524 93be 4bd9 c23e
00000290: f658 5e3d 338b 4abb 7935 a23e aa84 eebe
000002a0: 4a8e b93d d271 32be afba 013e 48f0 8f3e
000002b0: 2adc c93c d742 34be 5b53 383e ec91 1cbe
000002c0: 8f06 54bd 43e4 103f d1b4 9bbe b55c b1bc
000002d0: e560 f63c 0e85 6dbd 84b2 f13d ceaa 61bd
000002e0: b603 2bbd c6ca 05bd 7015 9bbe b450 aa3b
000002f0: 574e 02be c704 603d 70bf 1dbf 3a6e 963c
00000300: f468 85be a3bb d1bd 6a65 433e 3bd7 88be
00000310: a25f a83d 1892 38bc d298 94bc 838e d03a
00000320: f097 073e a9c5 503c 3675 a3bd 48a9 7abe
00000330: 50ce 95be 283a 8ebd 3ab6 85be 6d2f 95be
00000340: 45f0 0b3e 91bf 8a3e 3d8c fa3c a542 e8bd
00000350: 689f 8e3d a7a5 f9bc 2470 8ebe f6a2 f63c
00000360: 2e12 95be d763 d0bd 3c06 8d3d 9334 4bbe
00000370: d3d1 1fbe 0382 d93c f221 2a3d c7ab e13d
00000380: 4410 26be b611 9abe d75f 08be 9908 3e3c
00000390: 4729 b8bd 972f 1ebd d1a7 cf3d b23f 2ebd
000003a0: 4c2a a23e 8e48 9b3d e9d4 80be 90ac 843d
000003b0: 6c42 8cbd 61df bf3e ba9b 393e 315e a63e
000003c0: 5c00 953e 5bd2 01bc dde8 63be 2deb 9ebe
000003d0: d3ac 0fbe c9c6 343e 63a1 4c3e 62b5 bd3e
000003e0: 9095 683e 7c32 70b9 aad4 e43e 8a8f 38bc
000003f0: 6ec8 79bc cda4 59bd dc94 cd3d 171e 183e
-0.09662475 0.051249467 -0.30376363 0.09659096 0.13385224 0.024725871 0.01400262 -0.21735999
-0.43393275 0.012804126 -0.048074752 0.15332375 -0.16561814 0.0813156 0.102739185 -0.2163868
0.0090204105 -0.15701854 -0.034630712 0.29813206 -0.11761888 0.17829458 -0.29907188 -0.1458418
0.06683071 0.25790522 0.3062762 0.53791285 -0.106599785 -0.03946723 -0.048638362 0.34904745
-0.20693228 -0.39349493 -0.05613468 -0.101501964 0.03362976 0.30466294 -0.35519525 -0.08796544
-0.23805755 0.13326617 0.09650953 -0.5407913 -0.48389217 -0.18750747 -0.03072462 -0.035284586
0.22156361 0.30418453 -0.25364757 0.011564462 -0.14386821 -0.12632215 -0.14299506 -0.43312922
0.56019527 -0.021183757 -0.30913094 -0.1507618 -0.028038098 0.16247346 -0.13847029 -0.06850543
0.16466883 -0.11939125 -0.39768955 0.034542903 0.2010772 0.06575392 0.16510893 0.37474996
0.40465355 -0.22512591 0.017166506 -0.12080206 0.20511007 -0.5188474 0.1577203 -0.067173444
-0.093477905 -0.32331645 0.3535669 0.19848338 0.42573014 0.13530742 0.14866117 -0.25295466
0.046125714 0.10081245 -0.079652295 0.1072664 0.28295785 0.12754954 0.12763788 -0.025019497
0.0291782 -0.2918304 0.22233015 -0.087582685 -0.3630577 0.39514178 0.05587817 -0.42784286
-0.023953278 0.020798322 -0.0900028 -0.19514768 -0.13127607 -0.39295426 -0.52252686 0.34317747
0.088677935 -0.34707856 -0.5000665 0.03401977 -0.35118493 -0.06158063 0.20417835 0.0021545754
-0.07246243 -0.13123873 0.12912777 0.2804807 0.2411959 0.24892548 0.037462246 0.014092893
0.1955091 -0.4430529 -0.08440786 -0.2105719 -0.2964565 -0.008870918 -0.1362396 0.08661789
0.011592194 -0.1967703 0.20244981 0.15151367 0.30853093 0.20834239 -0.1132316 -0.2881561
-0.6561255 0.023556016 0.24954593 -0.12396636 0.2880535 0.2089039 -0.005276332 -0.17443486
0.22381644 0.144014 0.031402603 0.036272783 -0.10410522 0.10876722 -0.037198484 -0.28622454
-0.3622813 -0.098869085 -0.28738704 0.38056406 0.05428406 -0.0030905723 0.3168142 -0.4658559
0.090603426 -0.17426232 0.1266887 0.28113008 0.024641115 -0.17603622 0.18000548 -0.1529004
-0.051764067 0.565983 -0.3041139 -0.021650651 0.0300755 -0.05798822 0.11801627 -0.055094533
-0.041751586 -0.032664083 -0.30289793 0.005197609 -0.12725197 0.054692056 -0.61620235 0.018363107
-0.26056635 -0.10240867 0.19081655 -0.26726708 0.082213655 -0.0112653 -0.018139277 0.0015911612
0.13241553 0.012742438 -0.079813406 -0.24478638 -0.29258966 -0.06944686 -0.2611559 -0.29137745
0.13665874 0.2709928 0.030584449 -0.113408364 0.06963998 -0.030474497 -0.27819932 0.030107003
-0.29115433 -0.10175293 0.06885955 -0.19844274 -0.15607385 0.026551252 0.04153628 0.11019092
-0.16217142 -0.30091637 -0.1331781 0.0115987295 -0.08992248 -0.038619604 0.1013943 -0.042541213
0.31672895 0.07582198 -0.25162438 0.06478226 -0.068486065 0.37475112 0.18125811 0.32493737
0.29101837 -0.007923688 -0.22256799 -0.310388 -0.14030771 0.17653956 0.19983439 0.37052447
0.22713304 -0.0002290699 0.446935 -0.011264691 -0.01524554 -0.053135682 0.10038158 0.14855228

network.0.bias f4 [256]
00000000: a52d ad38 2123 57b8 8c0e d038 7f10 7039
00000010: 7d70 5db8 5752 9a38 dea8 033a f00d 7cb9
00000020: a57d 0c39 457d 7c39 6ae3 4439 4915 b638
00000030: 25e7 04b9 62c3 b7b8 3614 6eb9 135e 9f39
00000040: fdb1 8838 13d7 ca38 014c 7b39 1d93 a5b9
00000050: a2cc b237 db99 4f39 1963 27b9 a567 d5b8
00000060: ef5b afb8 39eb a8b8 fe7e 17b9 5805 63b9
00000070: 65d5 42b8 1c16 e636 a9b6 4638 4962 bcb7
00000080: 1b2b c0b9 3fed beb8 7fe1 49b9 174a ca38
00000090: 6b37 1539 ba3a 9ab8 807e 1639 ab8a 16b9
000000a0: 99e0 cab8 397c f738 3034 1f39 0045 2939
000000b0: fae5 3fb8 c837 cfb8 4037 da37 aec2 4339
000000c0: 515d 2939 18c9 0d3a ed2f 7739 3db6 4539
000000d0: 3e23 f338 feba 8fb7 5752 a538 2e65 36b9
000000e0: 23c7 2cb9 a432 d838 4ddf 8c38 2b2e 7cb8
000000f0: 7222 143a 7d29 3fb8 25a3 9b39 fcb7 77b9
00000100: e973 d9b6 7ecb c7b9 4d1d 1a39 aa42 8a39
00000110: d0b0 bc38 802d dc38 0f2e 9238 5577 3939
00000120: 7acb 66b9 d79c 0139 5e65 ebb8 2b5e 04b9
00000130: c112 50b6 aaf0 9739 652e f7b8 acfd ecb8
00000140: a6da 8238 a14f 0938 2cf6 0bb9 8fd8 f0b8
00000150: 8f5c 74b9 0056 a2b8 6b72 e038 27a0 2e38
00000160: 3686 30b9 fd21 3a39 ed30 95b9 17e2 c338
00000170: ab12 2a39 9d69 94b8 e23e 86b8 6937 8b39
00000180: cc53 79b9 4033 ee38 5aa4 93b8 5fb9 2138
00000190: c760 83b8 a90f d4b8 f47f f238 9c00 80b9
000001a0: e470 a639 f5af 7138 6dd8 c9b9 805e 8638
000001b0: d07e 6138 4b7f 0fb9 61b6 1939 d3cc 3eb9
000001c0: 273e 8ab9 5f79 9ab9 b654 73b8 ba87 ba38
000001d0: 0731 a9b8 37ba 74b9 40ff feb7 8c48 3d38
000001e0: f609 0739 132f 7938 6c93 a339 b183 19b9
000001f0: 5081 bf38 ab7e 8639 a708 ad37 f264 2d38
00000200: 7e68 c5b8 9a8b e737 3f20 60b9 dd75 3539
00000210: d44c 1639 91a9 dd38 bbfd 8239 71b4 6539
00000220: 0d34 95b9 3ee2 b7b8 ccda f3b7 b536 24b9
00000230: 6d58 d3b8 afb1 f637 8203 0fb8 e519 8838
00000240: 74de f6b7 24d6 ad39 8129 013a b235 99b7
00000250: 9a90 ed39 a33c aeb8 6231 cbb9 f100 7eb8
00000260: 3749 1a39 ee3f 1eb9 08b3 a6b7 aab4 30b9
00000270: 9a79 3338 af23 3cb8 2981 6037 74e4 fa36
00000280: e78d 3a38 ed2e eb38 2ce0 ce39 9199 9238
00000290: 1654 6eb9 29a7 6638 3792 bc39 ea5f 9939
000002a0: 1ac0 f837 5ec7 50b9 c074 c438 3243 9839
000002b0: bf33 18b9 0c7f 0538 4196 a3b7 e99e 6c39
000002c0: dd38 90b8 e43c 1139 331b d738 886b 3b38
000002d0: 0bc0 2f39 1885 bc39 dbad 09b9 a82d d739
000002e0: 6623 88b9 9e63 3db9 5b30 2c39 f938 bab9
000002f0: 21e9 6eb9 fa1c cdb8 9efa d8b8 1902 80b9
00000300: 7759 e837 bbd4 17b8 8043 a637 fceb 1739
00000310: b371 dcb8 2e16 0738 7768 53b5 ecb2 e439
00000320: ef32 e3b6 ded3 f3b7 b686 8037 4063 b539
00000330: e14b acb9 12fa ebb8 6022 a838 3c44 3939
00000340: 719b 1f39 e929 de37 edfd c2b9 5907 2a38
00000350: bc88 fbb9 b049 cfb8 5776 80b8 be44 9239
00000360: 8581 9538 de51 0737 1663 67b9 78f6 5739
00000370: 715e 0bba f250 0e38 8601 d138 99a2 4937
00000380: 0061 47b9 bc7b ae36 5d0f 4b39 8e51 d8b8
00000390: 49c1 3939 4cb0 adb9 8623 9739 adf3 2e39
000003a0: 1e67 0b39 f49f 3b39 b05a b9b9 646d f8b9
000003b0: 07fb 4e39 1973 2c39 a75e 4338 4e0b 5eb7
000003c0: 48f8 ff37 2420 c3b8 8faa 9639 2021 deb8
000003d0: 139c 6139 7736 063a 9767 1b39 6dce 07b9
000003e0: 9d4a 0d39 5e62 0138 1716 4cb9 6af2 c738
000003f0: 1c7f 0e39 e084 b539 ce7f 8eb9 4da4 88b7
8.257785e-05 -5.129271e-05 9.9209225e-05 0.00022894329 -5.279527e-05 7.358629e-05 0.00050224166 -0.00024037785
0.00013398247 0.0002407926 0.00018776735 8.682401e-05 -0.00012674609 -8.762513e-05 -0.00022704978 0.00030396934
6.518138e-05 9.672171e-05 0.00023965539 -0.0003158086 2.1314543e-05 0.00019798374 -0.00015963278 -0.00010175937
-8.361774e-05 -8.054678e-05 -0.0001444779 -0.00021650398 -4.6451943e-05 6.857108e-06 4.7376994e-05 -2.2457114e-05
-0.0003665321 -9.1040965e-05 -0.00019252858 9.645911e-05 0.00014230392 -7.354231e-05 0.0001435224 -0.00014356773
-9.673945e-05 0.00011801016 0.00015182863 0.000161428 -4.575213e-05 -9.880919e-05 2.6013353e-05 0.00018669173
0.00016151859 0.00054086884 0.0002357361 0.00018855273 0.00011593707 -1.7134003e-05 7.88315e-05 -0.00017394565
-0.00016477382 0.00010309115 6.717313e-05 -6.012448e-05 0.00056508847 -4.5576588e-05 0.00029685456 -0.00023624295
-6.4805977e-06 -0.0003810785 0.000146975 0.0002637108 8.9974725e-05 0.000104988925 6.9704016e-05 0.0001768743
-0.0002201031 0.00012360826 -0.00011224554 -0.00012623581 -3.1005331e-06 0.00028980273 -0.000117865195 -0.00011300607
6.2396095e-05 3.2737506e-05 -0.00013347779 -0.00011484429 -0.00023304134 -7.740781e-05 0.00010702464 4.1633986e-05
-0.00016834665 0.00017751004 -0.00028455947 9.340437e-05 0.00016219418 -7.076862e-05 -6.401331e-05 0.0002655343
-0.00023777707 0.000113582704 -7.040119e-05 3.855803e-05 -6.264593e-05 -0.00010111865 0.00011563292 -0.00024414517
0.00031746097 5.762275e-05 -0.00038498957 6.40722e-05 5.3762284e-05 -0.00013684963 0.00014659158 -0.00018196115
-0.00026367718 -0.00029463597 -5.8014608e-05 8.894452e-05 -8.06768e-05 -0.00023339024 -3.039802e-05 4.5128676e-05
0.00012878314 5.9410067e-05 0.0003119962 -0.00014640276 9.131676e-05 0.00025652847 2.0627236e-05 4.1340427e-05
-9.413155e-05 2.7602353e-05 -0.00021374317 0.00017305413 0.00014333735 0.000105696854 0.00024984576 0.00021906362
-0.00028458275 -8.768261e-05 -2.9069743e-05 -0.00015660639 -0.000100777346 2.9408226e-05 -3.4097124e-05 6.4898086e-05
-2.9429073e-05 0.0003315668 0.0004927144 -1.8264025e-05 0.000453119 -8.308261e-05 -0.0003875597 -6.0559196e-05
0.00014713859 -0.0001509187 -1.987211e-05 -0.0001685197 4.2790176e-05 -4.4855926e-05 1.3381513e-05 7.477176e-06
4.4478013e-05 0.00011214414 0.00039458403 6.9904265e-05 -0.00022728773 5.4991953e-05 0.00035967093 0.00029253896
2.9653358e-05 -0.00019910696 9.367755e-05 0.00029041764 -0.00014515127 3.1827993e-05 -1.9501082e-05 0.00022565913
-6.877047e-05 0.00013850961 0.00010257065 4.468442e-05 0.00016760842 0.00035957317 -0.00013130104 0.00041042012
-0.00025966315 -0.00018061555 0.00016421212 -0.00035519133 -0.00022784296 -9.780559e-05 -0.00010346364 -0.00024415625
2.7698215e-05 -3.6199326e-05 1.9820174e-05 0.00014488393 -0.000105115956 3.2207165e-05 -7.875564e-07 0.00043620856
-6.7710566e-06 -2.9066516e-05 1.5321519e-05 0.00034596957 -0.0003286293 -0.000112522524 8.017267e-05 0.00017668394
0.00015221328 2.6483978e-05 -0.00037191753 4.0538e-05 -0.00047976326 -9.8842545e-05 -6.125558e-05 0.00027898507
7.1289985e-05 8.065688e-06 -0.00022066789 0.00020595815 -0.0005316502 3.3930824e-05 9.9661804e-05 1.2018391e-05
-0.00019014254 5.2000087e-06 0.00019365312 -0.00010314873 0.00017714979 -0.00033128483 0.0002882743 0.0001668471
0.00013294487 0.00017893297 -0.00035353517 -0.00047383748 0.00019739206 0.00016446075 4.6579775e-05 -1.3234863e-05
3.0513984e-05 -9.304311e-05 0.00028737306 -0.00010591955 0.00021515814 0.000511981 0.00014820542 -0.00012951503
0.00013474603 3.084761e-05 -0.00019463185 9.5342126e-05 0.00013589527 0.0003462201 -0.00027179572 -1.6288972e-05

network.1.weight f4 [256]
00000000: 8f16 7f3f e644 6b3f 8f65 813f 9c24 653f
00000010: c97a 8e3f ea4f 703f f05b 883f cdcc 853f
00000020: 8975 893f c520 853f 8912 7a3f c70c 803f
00000030: 8aad 833f 6100 843f 8add 763f c4c1 853f
00000040: 3b7e 893f 7240 963f a19a 653f 6249 7c3f
00000050: 46c7 803f 4465 883f 5f8a 703f 3aff 613f
00000060: e608 733f c974 5a3f a38d 7d3f 7a5a 7d3f
00000070: a323 873f 88c6 763f f509 853f bd9f 813f
00000080: 8643 683f ae59 803f e7cf 893f e0ff 7d3f
00000090: c6d1 813f ea46 803f 4baa 873f 2054 5a3f
000000a0: 1c54 783f 407c 613f 0c02 823f 4fca 713f
000000b0: cf7e 843f b188 6e3f bbc8 833f d742 723f
000000c0: 2451 863f cfea 6f3f 77c2 773f 3d6b 723f
000000d0: 0e78 6e3f 5efe 863f 412d 763f 31ad 883f
000000e0: 3277 823f f084 813f e103 813f eb8c 7a3f
000000f0: 7d79 9c3f 2c68 863f 3974 803f 90d1 6a3f
00000100: 81e2 733f 599f 853f f9f4 713f f4ef 7c3f
00000110: 32b4 7d3f 1bde 8a3f a8d3 8d3f e30c 723f
00000120: c9f5 863f 707d 743f f1fe 823f 310d 773f
00000130: a1cc 8a3f 277b 6c3f 22b6 8c3f c970 6b3f
00000140: 0135 7f3f 4e51 763f 7fea 6f3f 4160 8b3f
00000150: 7f5d 873f b599 823f 1672 6a3f bcbb 7b3f
00000160: cc8d 693f 36e9 823f 75f1 883f c0bd 6f3f
00000170: 05a2 803f 6421 813f 3e4a 763f ba84 753f
00000180: ac3f 813f cef2 843f a559 753f 0924 843f
00000190: b39b 7f3f 92b6 893f 020f 763f 62a2 843f
000001a0: 93cb 733f 49dd 8f3f f903 783f fdd7 6d3f
000001b0: 69df 813f 1082 833f 6d92 803f dc82 723f
000001c0: 253c 743f 33b0 7a3f ea6a 683f 52d2 6b3f
000001d0: 4cac 7b3f c5b7 753f e724 6d3f 53c6 693f
000001e0: f3bc 753f 160c 673f 4f67 6f3f a23e 883f
000001f0: a3f7 6f3f 0a80 813f e8f4 663f e490 783f
00000200: 2a4c 803f 57aa 773f 99e8 6a3f 9167 753f
00000210: 325e 7d3f 95bb 803f 4528 833f 16a6 803f
00000220: 8897 813f 0cd6 663f 70a7 803f bb86 883f
00000230: f336 863f 49aa 823f 66e1 763f 4004 803f
00000240: 3208 713f 68fa 743f 06c9 703f 36b4 783f
00000250: 95d6 773f d076 7d3f e550 823f 4dfe 8c3f
00000260: 730c 753f a218 6e3f 8785 783f 9c58 753f
00000270: 019b 793f d384 6b3f 6a87 7f3f 1738 773f
00000280: 56a3 733f fbff 763f 7afa 803f ee7b 803f
00000290: 0d2e 843f 9c7d 6c3f cd59 8b3f e2aa 673f
000002a0: 546b 7b3f c366 803f 97be 843f 2889 8c3f
000002b0: 8139 723f 0a22 813f c710 8d3f 2268 7e3f
000002c0: e49c 763f 72f8 833f 3869 613f 05e0 7a3f
000002d0: d0da 7d3f df55 6c3f 8e89 823f 2e58 943f
000002e0: 872e 8a3f a33f 6a3f a8e3 803f d52c 873f
000002f0: dbd5 833f 9172 7e3f 4659 743f 2d8f 9b3f
00000300: e0a1 573f a252 833f 99c4 833f 1c17 573f
00000310: fe83 883f 8378 8e3f 5c07 6a3f 44f6 803f
00000320: 1e30 813f 92a2 7a3f ffeb 5b3f 8036 833f
00000330: c790 813f 0fff 803f 07e9 663f 6d43 913f
00000340: 10d5 863f e833 853f 05ac 983f f41e 863f
00000350: d678 6d3f bb21 8a3f 1da4 803f c057 6f3f
00000360: 874b 693f 8af2 683f a088 813f 9916 6e3f
00000370: 0c05 803f a320 723f 537c 6b3f 6628 713f
00000380: e5d3 823f e224 643f 0d77 7c3f 7c82 5b3f
00000390: 8635 643f 4863 853f 1661 8e3f d796 823f
000003a0: b75e 6b3f d10e 753f 6d7a 8b3f d2d6 863f
000003b0: 6e6a 573f ca53 893f 166c 743f d099 773f
000003c0: 18df 6f3f 4fc1 6c3f 47d7 863f 527c 843f
000003d0: 38a3 5d3f 8702 733f 13e4 773f 1620 563f
000003e0: d0f9 723f 6875 7b3f c470 813f 69d9 713f
000003f0: a9be 713f dc9c 7f3f 45c5 7c3f 1666 7a3f
0.99643797 0.91902006 1.0109118 0.89508986 1.1131221 0.9387194 1.0653057 1.0453125
1.0738994 1.0400625 0.9768453 1.0003899 1.0287335 1.0312616 0.9643179 1.0449758
1.0741647 1.1738417 0.8968907 0.98549473 1.0060813 1.0655904 0.9396114 0.8828007
0.9493545 0.8533445 0.99044245 0.9896618 1.055775 0.96396685 1.0393664 1.0126873
0.9072803 1.0027368 1.0766572 0.9921856 1.0142143 1.0021641 1.0598844 0.85284615
0.9700334 0.88080215 1.0156875 0.94449323 1.0351199 0.93177325 1.0295633 0.9463324
1.0493512 0.93717664 0.96781105 0.9469488 0.9315194 1.0546377 0.961628 1.0677854
1.0192626 1.0118694 1.0079309 0.97871274 1.2224575 1.0500541 1.0035468 0.91726017
0.9526749 1.0439254 0.94514424 0.9880364 0.9910308 1.0849031 1.1080217 0.94550914
1.0543758 0.955039 1.0234052 0.96504503 1.0843698 0.92375416 1.0993083 0.9196897
0.9969025 0.9621781 0.9371719 1.0888749 1.0575408 1.0203158 0.9158033 0.98333335
0.9123199 1.022742 1.0698687 0.9364891 1.0049444 1.0088315 0.96207035 0.9590565
1.0097556 1.0386598 0.9583991 1.0323497 0.99846953 1.0758841 0.9611665 1.0362055
0.95232505 1.1239406 0.9688106 0.92907697 1.0146304 1.0274067 1.0044686 0.94730926
0.95404273 0.9792511 0.9078814 0.921178 0.9830978 0.95983535 0.92634434 0.91318244
0.9599144 0.90252817 0.9351701 1.0644114 0.9373724 1.01172 0.9021745 0.97096086
1.0023243 0.9674429 0.91761166 0.95861155 0.98971856 1.0057245 1.0246664 1.0050685
1.0124369 0.9017036 1.0051098 1.0666116 1.0485519 1.0208217 0.9643768 1.0001297
0.9415313 0.9569459 0.9405674 0.9714998 0.968118 0.9900942 1.0180937 1.1015106
0.9572212 0.93006337 0.97078747 0.9583833 0.9750214 0.9199955 0.99816 0.9656996
0.95171106 0.96484345 1.0076439 1.003782 1.0326554 0.92379165 1.088678 0.9049512
0.98210645 1.003136 1.0370663 1.0979357 0.94618994 1.0088513 1.1020745 0.99377644
0.96333146 1.0310194 0.88051176 0.97998077 0.99162006 0.9231853 1.0198228 1.158941
1.0795449 0.9150335 1.0069475 1.0560557 1.0299639 0.99393564 0.9544872 1.2153069
0.84231377 1.0259593 1.0294372 0.8401964 1.0665281 1.1130527 0.9141748 1.0075154
1.0092809 0.9790431 0.85906976 1.0251007 1.0122308 1.0077838 0.9019932 1.1348702
1.0533772 1.0406466 1.1927496 1.0478196 0.92762506 1.0791544 1.0050083 0.9349327
0.9113087 0.90995085 1.011982 0.9300323 1.000154 0.9458105 0.9198658 0.9420227
1.0220915 0.8911878 0.9861916 0.8574598 0.8914417 1.0420923 1.1123378 1.0202283
0.919414 0.95725733 1.0896736 1.0534308 0.84146774 1.0728695 0.95477426 0.96719074
0.9369979 0.92482466 1.0534447 1.035044 0.8657718 0.9492573 0.9683239 0.8364271
0.94912434 0.9822602 1.0112538 0.94472367 0.9443155 0.99848723 0.9873851 0.9781202

network.1.bias f4 [256]
00000000: 2ceb 1cbd a062 26bd 11da c1bd 4863 04be
00000010: beaf 96bd e99f e5bd 97a2 86bd 5a8e c539
00000020: 6e19 15be 7264 a5bd 9f4c 88bd fe9f 75be
00000030: c613 8d3d 0857 25be 5f89 27be f10d 4abd
00000040: 7e23 8fbd 0656 5abe 6e5b 10be a521 4cbd
00000050: a770 2bbe 4fd1 ea3c 7d99 e53c f4a2 03be
00000060: f48f 2dbe 3d79 ecbd 44f7 28be 4723 9dbd
00000070: 43fd 02be 3f8f 0cbe f231 50be 7374 b7bd
00000080: 72c5 91be 5562 afbd 8636 2abe 277c ccbd
00000090: 1963 19be 9f73 46be 2a87 4bbd 900b 64be
000000a0: a729 83be e89e 3abe ff9b 96bd c1bc 95bd
000000b0: 28d7 b4bd dd0b f93c 2d87 d2bd 431f 87bd
000000c0: ed9e 79be bac8 2dbd 9a5f c1bd f64e 01be
000000d0: efbb dabd c5bf 16be f706 523c 4100 6abe
000000e0: 9b28 6abe db8f 0fbe 8039 a7bd 4439 c6bd
000000f0: b9d1 eb3d 74b8 92bc 472d bfbd bb9e 87bc
00000100: 25fc 33be fe30 83be 0ef9 c9bd 1541 a53c
00000110: 37d0 83bd 8f22 edbc a967 02bd 7b02 09be
00000120: 6a5a 68be d214 8fbe c6b8 11be c05c a73d
00000130: ca91 a2bd 4fd6 ac3c 74ed 5bbd 4a13 32be
00000140: 81bf 3fbe e993 12be d4aa debd 5b0e 04bb
00000150: f9b1 48be 3b3d 97bd be43 a7bd 0086 28be
00000160: 327d 17be 8675 e7bd 3166 08be 9c22 12be
00000170: 741d 29bd dbdf 373d 5299 8dbe 608b 5bbd
00000180: 1808 bf3d 0203 2dbe 9472 21be 440e aebc
00000190: 7b47 81be 115c b0bd 207e 3abe 12fc 10bd
000001a0: 04f3 10be e5b4 6ebe 181a cfbd c326 c73c
000001b0: 3f2f 01be 7148 073e 5a52 5abe f427 23bd
000001c0: f5fd e2bd b8a8 1ebe f381 dbbd e37b 8bbd
000001d0: acc8 61be 4afd 32be ec98 0cbe d40f 08be
000001e0: d5ec ddbd 9a1e e03c b31d 55be 1b0f e5bd
000001f0: 6d89 22be 4e06 26be f2bf b2bd 32d0 8fbc
00000200: 2baa f8bd adf8 b6bd 4983 94bd 44d2 11be
00000210: 0949 00bc dff0 05be d11d 46bd f9c3 46be
00000220: 44e2 53be 9c00 1fbe 1445 dbbc ab5d 16be
00000230: 42c0 32be cfac 92be 45f7 1ebe 22e2 b4bd
00000240: a4fe 02be 9cdd 4ebd 7fd6 19be e79e ecbd
00000250: 78da 59bd d360 18be 3183 e9bd d133 21be
00000260: 06e6 d7bd cc3c d5bd 0cc2 d1bd 6396 57bd
00000270: 63a1 93bd c85e eebd d07e fcbd a113 e3bd
00000280: a157 9bbd 7cc6 c3bd e047 f3bd 2d06 5cbe
00000290: 2baa 0abe db8c 3abe dd47 4abd 9826 3abe
000002a0: f20d 23be 0571 b4bd 339a 57be eb2a 20be
000002b0: 14c6 4dbe 28f7 15be 39b1 acbd c31b 84bd
000002c0: 476c 1dbe d145 babd ba28 18be d82f dcbc
000002d0: 078b 93be 1c77 03be b77f 8abd 0257 3abd
000002e0: 4696 3dbe fc8a 4abd 3607 07be 43d5 5cbe
000002f0: 52c9 bbbd 8a35 b6bd cccd 74bd f859 00be
00000300: 8013 02be 7ba4 c3bd 2c00 80bd 2efe 0bbe
00000310: bf2e 2ebe 60ec 3f3d c687 8fbd f4b5 cabb
00000320: 7b99 6c3c 88da 22be 414f 1cbe d178 2abd
00000330: f073 713c f654 25be b7b4 8dbd 8301 743b
00000340: e7af 1bbe a93d 27bc 1b63 3fbe f04e d6b9
00000350: b66d a6bd eb3d 14be 6bac d93b ef6f 34be
00000360: f654 14be 2c34 16be b320 9fbd 151b 1bbe
00000370: 852c aebd ad59 53be 6946 7bbe f240 ffbd
00000380: 2fa3 04be b260 8dbe 6226 ffbd 9977 03be
00000390: a826 e5bd 353c 683d d0d3 0dbe 0719 01be
000003a0: a4d9 45be bb3a 75be 596f 77be 6131 88be
000003b0: 8385 cfbd ef2d afbd 7ccb 2ebd 56c5 29be
000003c0: e4ae 09be ff34 02be 397e 58bd 1560 65be
000003d0: a697 17be 407f 3bbe d845 9ebd 039f 12be
000003e0: 9693 4abe 7a01 2dbe 06cb 80bd 90e9 1dbe
000003f0: 99c3 8cbc c330 16bd 7db0 1fbe c944 4ebe
-0.038310215 -0.0406214 -0.09465421 -0.12928498 -0.07357739 -0.11212141 -0.0657398 0.00037680828
-0.14560482 -0.08075799 -0.06655239 -0.23986813 0.06888537 -0.16146481 -0.16360997 -0.0493297
-0.069891915 -0.21321878 -0.14097378 -0.049836773 -0.16742192 0.02866426 0.02802729 -0.1285513
-0.16949445 -0.11546562 -0.16500574 -0.07672744 -0.12791924 -0.13726519 -0.20331553 -0.08957758
-0.2847095 -0.08563677 -0.16622362 -0.09984618 -0.14979209 -0.19380043 -0.04968945 -0.22270036
-0.25617716 -0.1822468 -0.07353973 -0.073113926 -0.088301 0.030401165 -0.10279689 -0.065977596
-0.24377032 -0.042427756 -0.09442063 -0.12627777 -0.10680377 -0.14721592 0.012819043 -0.2285166
-0.22867052 -0.1401972 -0.08165264 -0.09678891 0.11514611 -0.01791022 -0.09334808 -0.01655518
-0.17576654 -0.25623316 -0.098619565 0.020172635 -0.06436198 -0.028947143 -0.03183714 -0.13379852
-0.2269074 -0.27945572 -0.14230642 0.081719875 -0.07937963 0.021098284 -0.05369325 -0.1739017
-0.18725397 -0.14314236 -0.10872427 -0.0020150158 -0.19599141 -0.07384726 -0.08167218 -0.16457367
-0.14793852 -0.11301713 -0.13320233 -0.14271015 -0.041287854 0.04489122 -0.27656037 -0.053599715
0.09327716 -0.16895679 -0.15766364 -0.021247037 -0.25249848 -0.0861131 -0.18212175 -0.035396643
-0.14155203 -0.23311193 -0.10112399 0.024310475 -0.12615679 0.13211228 -0.21320477 -0.039833024
-0.11083595 -0.15494049 -0.10718145 -0.06810739 -0.22049206 -0.17479435 -0.1373021 -0.13287288
-0.10836188 0.027358342 -0.2081211 -0.11184522 -0.15872736 -0.16213343 -0.08728017 -0.01755533
-0.12141832 -0.0893415 -0.07251603 -0.14240366 -0.007829913 -0.13080166 -0.04836828 -0.19410695
-0.20691782 -0.15527576 -0.026766337 -0.14684169 -0.17456153 -0.28647467 -0.15524013 -0.08832194
-0.1279245 -0.050504312 -0.1502323 -0.11553746 -0.053186864 -0.14880686 -0.11401976 -0.15742423
-0.1054192 -0.10411987 -0.1024209 -0.052633654 -0.072085164 -0.11639172 -0.12328875 -0.11087728
-0.07585073 -0.09559342 -0.118789434 -0.21486731 -0.13541476 -0.18217795 -0.04938494 -0.18178785
-0.15923288 -0.08810619 -0.21054916 -0.15641372 -0.20095092 -0.14645064 -0.0843224 -0.06450608
-0.15373336 -0.09095348 -0.14859286 -0.026878282 -0.28817007 -0.12838405 -0.06762641 -0.045493133
-0.18514356 -0.049448952 -0.13186345 -0.21565728 -0.09169258 -0.088969305 -0.059766576 -0.1253432
-0.12702751 -0.095528565 -0.06250033 -0.1367118 -0.1701002 0.046856284 -0.070083186 -0.0061862413
0.0144408895 -0.15903676 -0.15264608 -0.041619126 0.014737114 -0.16145691 -0.06919234 0.0037232346
-0.1520382 -0.010207572 -0.1869015 -0.00040876074 -0.081263945 -0.14476745 0.0066428683 -0.17620824
-0.14485535 -0.1466834 -0.07769909 -0.1514705 -0.08504585 -0.20639677 -0.24538578 -0.12463559
-0.12952875 -0.27612835 -0.12458493 -0.12838592 -0.11189014 0.056698043 -0.13850331 -0.12607203
-0.19321305 -0.23948185 -0.2416357 -0.26600173 -0.10132887 -0.08553683 -0.042674527 -0.16579184
-0.13445622 -0.12715529 -0.05285475 -0.22399934 -0.14803943 -0.18310261 -0.077281654 -0.1431847
-0.19782862 -0.16895095 -0.06288724 -0.15421128 -0.017183112 -0.036667597 -0.15594669 -0.20143427

network.1.running_mean f4 [256]
00000000: b1e5 e9bd 2028 733c 826c 863d bc2a 5cbb
00000010: 7af6 a03c 57a6 a0bd 0b6a 2cbd f948 22bd
00000020: 94ba 16bc ae81 81bc e4be 93bb e329 ccbc
00000030: d135 a93d 2ead 73bc fcaf 1e3d 6d4d 7a3d
00000040: d0e8 28bc 07cb 033d 05b3 0b3c f8aa 123d
00000050: 55b9 fcbd 7afc ccbc d736 c93d c67f 0a3c
00000060: e759 233d fe17 94bd b204 c6bc f511 4e3d
00000070: 7ce0 36bd aa2c 8abd 483b 3a3d d458 353c
00000080: 9674 8a3d 4fe2 4cb9 432b f93d bf73 e23c
00000090: d03d 4e3d 3ec7 223c 3382 03bb 6fcf 90bd
000000a0: 706e a4bd 01d6 14bd 0624 57bd 4a6a c3bd
000000b0: 7ca0 413b c823 803d daa2 813b e35b fdbc
000000c0: 5dc3 b9bd 1966 7bbc 0a1f 98bc c39c cb3c
000000d0: ac16 eebc 75b7 833c 0e51 cd3c 88a2 0abd
000000e0: 4265 93bd 7097 f23b 09b5 a3bc 0066 843d
000000f0: 39c2 cb3c b05f b3bc 21ea f43c 01b8 cd3d
00000100: 5969 95bc d11a 7a3d 2f8d 333d 6845 853d
00000110: 595d 1239 deff 1c3e 21e7 ffbc 2ebb 87ba
00000120: a878 d6bb ddca 35bc f0c6 16be b315 74bd
00000130: b721 6f3d ae4e 20bd b462 bdbd d42b afbc
00000140: 8767 52bd a056 f5bc af1a 3cbc 1a67 12bd
00000150: e265 8abd 7dd9 6e3c c1be 493d 67fd ce3c
00000160: ef3e 263d 09dc 9ebd 0e9a f43d fda1 46bc
00000170: 91b2 363d 4d46 06bd fd90 0f3d 40e2 3f3d
00000180: 9f34 5dbd b5d7 f6bc b27b 0dbe 1a85 a8bd
00000190: 7cca 50bd 521f e3bc d7a8 1fbd e085 acbd
000001a0: 3c53 c4bc 6700 6bbc 63fc 98bd b4e1 e53c
000001b0: f38a 9abd 6fa0 833d 0f45 e23c 316d 30bd
000001c0: e8c7 adbd a829 9ebc 5438 e23b 7b1b 3b3e
000001d0: fbe7 993d c589 cebd 4228 e83b 41b1 03bd
000001e0: 3935 09be ff61 e93d 8630 08be 5b7e 7c3d
000001f0: 6cf4 7abd 65cf c53d 5a99 3c3d fe4a fabb
00000200: 0f44 a83c 3de7 87bc c320 ba3d fac8 e8bd
00000210: 51e2 6a3d 731a 68bd 13f6 98bd 41f9 ebbd
00000220: b96e 87bc 2561 183c 5aec 3f3d 9dd4 933d
00000230: 3410 7cbd 3f1f 24bd 062c ca3d d285 92bd
00000240: 1955 d0bb 5cfe ddbc 82ba 8ebd 44ec 74bd
00000250: 8115 ba3d caa0 463d 20ea 943d a86c 9a3c
00000260: 44ac b0bd 2b4d bdbd 9932 973d d5c6 eabb
00000270: 05a2 153d 6ae1 653c 4dcf 3dbd f21b 12bd
00000280: d5f5 553a fe02 1bbd 8959 96bc 2576 57bd
00000290: 1ee9 a63d 1cd5 a8bb 9a06 8abc d7a8 8cbc
000002a0: c799 c53d cc85 48bd be13 0ebd 88a5 c3bd
000002b0: f1fc 35bb 79f5 bf3c ae8d 2cbd 81aa c4bb
000002c0: 67e6 a5bc 5472 2dbc 95d7 5dbd 5e36 67bd
000002d0: 1353 a2bc 9e0a 823d a44f b53d e869 c0bd
000002e0: 42d8 abbb 3268 cabd 1505 a7bc 2afe 1ebc
000002f0: 9d9e 743c 9d4f 97bb d590 b1bc 238b 42bd
00000300: 89bc 4fbd bee9 6b3d 9527 07bd 5ac4 f43c
00000310: a2a7 ef3c 067b b2bd a0dc 51bb f186 eabc
00000320: ab32 10bd bc0c a9bc fde9 703d bedd babc
00000330: 0077 413d 8a36 6bbd 2a7b f4bc dbbb 77bc
00000340: 87b9 8e3d 020f 70bc e0fa f8bc ab26 1cbd
00000350: e5a6 21bd 3095 cdbc 4d67 9cbd d844 69bd
00000360: 96d1 2b3d af00 29bd 2331 26bc 6d2d 96bc
00000370: e8d2 163c b60e 573d 52ee 8fbc bc0b cc39
00000380: 77e8 623d 2fb8 e5bd 2027 11bd 7be2 143d
00000390: a8b9 113d 960e 133c e525 10bd 6c10 a4bd
000003a0: 5dcf 5bbd 217f c63d 816f 6d3b 751a 03bd
000003b0: 4d3f 28bd ff2a 973d f92d 9a3d f9f8 353d
000003c0: 14b4 863d 2615 f6bd 9cae 913d e765 b3bd
000003d0: a58c 78bc 1c29 26bc 2cba 613c 442e 8dbd
000003e0: cf31 2cbc f423 b43d 19b8 183d 841f 16bd
000003f0: 0da4 44bc 51fb 15bd 5f86 b6bc 91d8 d23c
-0.11420763 0.0148411095 0.06563665 -0.0033594808 0.01964878 -0.07844227 -0.042093318 -0.039620373
-0.009199757 -0.015808906 -0.00450884 -0.024922317 0.08262218 -0.014872832 0.03874205 0.061108995
-0.010309413 0.032176044 0.008526568 0.03580758 -0.12340037 -0.025022734 0.09824913 0.008453315
0.03988066 -0.07231139 -0.02417216 0.050310094 -0.04464768 -0.067468 0.04546669 0.011068542
0.06760518 -0.00019539263 0.12166455 0.027643083 0.050351918 0.009935198 -0.0020066618 -0.07070815
-0.08028877 -0.036336903 -0.05252459 -0.095417574 0.002954512 0.06256825 0.003956181 -0.030927604
-0.09070466 -0.015344166 -0.018569488 0.024855023 -0.029063545 0.01607869 0.025063064 -0.033846408
-0.07197048 0.0074033067 -0.019983785 0.064647675 0.024872886 -0.021896213 0.029896798 0.100448616
-0.01823871 0.06106073 0.043835815 0.06507379 0.0001395842 0.1533198 -0.03123814 -0.0010355467
-0.006545145 -0.01109573 -0.14724326 -0.059591006 0.058381762 -0.039137535 -0.09247342 -0.021383204
-0.051368263 -0.029948533 -0.011480971 -0.035742857 -0.06757714 0.01457822 0.049254183 0.025267316
0.040587362 -0.07756812 0.11943446 -0.012123582 0.044603888 -0.032781888 0.03505038 0.04684663
-0.05400526 -0.030132154 -0.13816717 -0.08228512 -0.050974354 -0.027724896 -0.038979378 -0.08423972
-0.02396547 -0.014343358 -0.07470014 0.028061725 -0.07546034 0.06427085 0.02762082 -0.043072883
-0.08485395 -0.019306973 0.0069036875 0.18272202 0.0751495 -0.10084871 0.007084877 -0.032151464
-0.13399209 0.113956444 -0.1329976 0.06164394 -0.061268255 0.09658698 0.046044685 -0.0076383343
0.020540265 -0.016589755 0.0908828 -0.11366458 0.05734474 -0.05666585 -0.0746881 -0.11522151
-0.016532289 0.009300505 0.04685626 0.07218287 -0.06153889 -0.04006886 0.09871678 -0.071544304
-0.0063578007 -0.027098827 -0.06969167 -0.059795633 0.09086133 0.048493184 0.07271218 0.01885064
-0.08626607 -0.09243234 0.073826976 -0.007164816 0.036531467 0.014030794 -0.046340276 -0.035671182
0.0008161937 -0.03784465 -0.01835324 -0.052602906 0.08149932 -0.0051523577 -0.016848851 -0.017170353
0.09648471 -0.048955724 -0.034686796 -0.09553057 -0.0027769173 0.02343248 -0.042127304 -0.006001771
-0.020251466 -0.01058634 -0.054160673 -0.056448333 -0.019815003 0.06349681 0.08853081 -0.093952
-0.005244286 -0.09883155 -0.020388165 -0.009704152 0.0149303945 -0.004617645 -0.021675507 -0.047495972
-0.05071691 0.05759596 -0.032996733 0.029878784 0.029254738 -0.08714871 -0.0032022372 -0.028628798
-0.03520457 -0.020635955 0.0588169 -0.022810813 0.047232628 -0.05742506 -0.029843885 -0.015120472
0.0696898 -0.014652016 -0.030393064 -0.038122814 -0.039465804 -0.025095552 -0.076368906 -0.05695042
0.041947924 -0.041260418 -0.010143551 -0.018332208 0.009205557 0.052504264 -0.017569695 0.00038918655
0.055397477 -0.11216771 -0.035437703 0.0363488 0.035577446 0.0089756455 -0.03519239 -0.08010945
-0.053664554 0.09692217 0.0036229792 -0.032007653 -0.041075993 0.07381248 0.075283 0.044426892
0.06577316 -0.120157525 0.07113382 -0.08759671 -0.015170251 -0.010141637 0.013777297 -0.0689359
-0.010509922 0.0879592 0.037284944 -0.03665115 -0.012002003 -0.036616627 -0.02228087 0.025738033

network.1.running_var f4 [256]
00000000: 01c9 6440 6d28 d13f 66b4 0b40 6f42 0940
00000010: e6c2 823f d621 0a40 237e cb3f a9c5 1640
00000020: 7d0c e83f 5357 d43f 7afd dc3f 9f46 7340
00000030: c905 ad3f 30b6 1c40 b2f4 3b40 e621 2f40
00000040: e926 0740 3cfc 9a3f 283b 1b40 95b0 e93f
00000050: 18d4 0c40 13c8 bd3f 9d95 d83f 4b29 2a40
00000060: 1ca9 0e40 69f2 2440 7260 3540 d7e0 1440
00000070: 8678 3c40 7194 8640 7206 1640 5e19 aa3f
00000080: 5859 2140 5548 1240 5684 4940 fc2a 6c40
00000090: 6636 ab3f cb65 0140 c460 1640 29bc 1140
000000a0: e0f0 0e40 7d42 f53f e6a7 1a40 0e01 2640
000000b0: 04df ff3f d27e f53f 2b8c 1440 3a5a b43f
000000c0: df17 ee3f d9a0 be3f 9ef2 1e40 16d0 0d40
000000d0: bd90 0540 70f0 b63f a30d 5b40 404c 1440
000000e0: 68a2 c23f b7ca d93f c45e 2b40 5d12 2340
000000f0: 645a d93f fb06 2740 6de1 d53f 1664 3740
00000100: 67b9 2c40 5bcc 0040 4506 cc3f db50 0340
00000110: 7ed4 1040 ed9a 5b40 ca2f f43f 80ae 1040
00000120: 84f5 e13f 902c 0140 7341 ec3f 1d20 4240
00000130: 3c36 3040 262c 1a40 d5f3 2040 ca07 6740
00000140: 43d9 2a40 5753 f43f 201a d73f 2a51 2240
00000150: 67ec 0a40 962a db3f 73d7 b93f a218 1940
00000160: 226c 0540 e3cc 2f40 957c af3f 1b9f cf3f
00000170: 2757 d03f ebdd e13f 81f9 3440 adf1 7040
00000180: 0d25 2140 9ef5 d73f b96f c340 cd4c d13f
00000190: eb22 e43f b906 e73f 08db 2540 a26a 2640
000001a0: 9533 fc3f f784 8c3f 3aa5 c83f 3fd9 1040
000001b0: 6e6e e13f 9d27 c33f e581 cc3f 2bcb 4c40
000001c0: 412e 1940 91a8 963f b68a d03f 25f0 8a40
000001d0: 5a84 ff3f 44ce 4240 54e7 3740 84b7 0e40
000001e0: 9322 1240 abe2 4040 f99d 0740 d2ae 1840
000001f0: eda4 943f dd2d 1940 6022 2c40 57e5 b53f
00000200: 82df e03f 1589 1b40 02d2 3d40 73c1 1740
00000210: 23e4 8c3f d18b f73f 745a 3e40 9fb4 2740
00000220: 28ec 0840 e9b6 0240 c790 4640 a954 0340
00000230: 03de 4940 f674 1b40 ff6e 2440 2ee7 d63f
00000240: 9017 0f40 b18f 0340 eba5 5a40 e684 0b40
00000250: 80ec fb3f b71c c23f 602f d13f ca71 ad3f
00000260: 1711 cb3f 2e5d fd3f b776 d53f e30a 6040
00000270: dd30 1540 8206 1940 5452 bd3f 43c0 4640
00000280: d2f7 0740 5804 0640 eeb3 0240 277f 1140
00000290: 3c0e e73f bae8 e53f 663d fc3f 865b f93f
000002a0: 332a 2940 5ab1 1340 36a1 783f bf74 4e40
000002b0: 3dc1 1240 c367 f03f 1200 fd3f 1eba 0540
000002c0: 18bc 3640 a6ba f83f 8f34 6e40 a215 fd3f
000002d0: 52e6 0e40 04e8 3940 16a7 5240 d9f5 d43f
000002e0: 8895 973f c2cc fd3f d394 c83f 78f1 d13f
000002f0: 5570 6d3f d298 a33f 9135 a93f 203d c23f
00000300: 1aa5 1640 1a57 d83f dbf8 f53f fcea 0240
00000310: d772 fe3f 667f 0840 ef50 0440 2b08 0a40
00000320: a1d8 4440 b52b 3040 baa9 1640 0fa0 bd3f
00000330: 6b96 1540 dc4f be3f 0383 6940 2fb3 9d3f
00000340: 5638 d73f 4b80 1940 36db 813f 3427 1b40
00000350: 1369 7340 5d67 e53f 0aee 4a40 999a 1640
00000360: f69d 1140 4a13 ce3f c0cd 1440 46d5 f83f
00000370: a1b8 e33f ac91 2e40 16c5 2140 879c 3040
00000380: c290 6040 ee81 6c40 384c d83f d00c 5740
00000390: 2e87 fe3f 6603 e33f eb3c f83f 13ac 1340
000003a0: 6efa 0e40 595a 3c40 fd0b f93f b003 af3f
000003b0: 7543 4340 b618 2840 038f 6040 b8f0 f93f
000003c0: d7c4 3a40 c060 9540 1e7c 2c40 b7bf da3f
000003d0: aebb 0340 2900 8e3f 5099 f93f 6431 dc3f
000003e0: d1ec 1640 ce27 bd3f fbb1 973f 2517 6740
000003f0: 2636 8340 95a0 ba3f f3c2 0140 b076 e73f
3.5747683 1.6340462 2.1828856 2.1446798 1.0215728 2.1583152 1.5897869 2.3558142
1.8128811 1.6589149 1.7264855 3.8011854 1.351739 2.4486198 2.93681 2.736444
2.11175 1.2108226 2.4254856 1.8257014 2.2004452 1.4826683 1.6920658 2.6587703
2.2290716 2.5772955 2.8340116 2.3262231 2.9448562 4.2056203 2.3441434 1.3288991
2.521078 2.2856648 3.1487021 3.6901236 1.3375976 2.021838 2.349656 2.2771094
2.2334518 1.9160916 2.4164977 2.5938144 1.9989934 1.9179327 2.3210552 1.4090035
1.8601035 1.4892837 2.4835582 2.2158256 2.0869591 1.4292126 3.4227073 2.317154
1.5205812 1.7014989 2.677659 2.5479958 1.698071 2.609801 1.670942 2.8654838
2.698816 2.0124729 1.5939413 2.05181 2.2629695 3.431331 1.9077084 2.2606506
1.765305 2.0183449 1.8457474 3.03321 2.7533102 2.4089446 2.5148823 3.6098504
2.6695106 1.9087933 1.6804848 2.5362039 2.1706789 1.7122371 1.4518875 2.3921285
2.084725 2.7468803 1.3709894 1.622043 1.6276597 1.7645849 2.8277285 3.7647507
2.5178864 1.6871831 6.107388 1.6351563 1.7823156 1.8048927 2.5914936 2.6002584
1.9703242 1.0978078 1.5675423 2.2632596 1.7611825 1.5246464 1.5977141 3.1999004
2.393448 1.1770192 1.6292331 4.3418145 1.9962265 3.0438395 2.8734941 2.229951
2.2833602 3.0138347 2.119017 2.3856702 1.1612831 2.3934243 2.689598 1.4210614
1.7568209 2.4302418 2.9659429 2.3711822 1.1007122 1.9339544 2.9742708 2.6203992
2.1394138 2.042414 3.1025865 2.0520422 3.1541755 2.4290137 2.5692747 1.67893
2.2358131 2.0556452 3.4163768 2.1799865 1.9681549 1.5165013 1.6342583 1.3550351
1.586459 1.9794061 1.6676854 3.5006645 2.3311074 2.3910222 1.479075 3.1054847
2.1245008 2.0940151 2.042232 2.2733858 1.8051219 1.7961648 1.9706237 1.9481056
2.6432006 2.3076997 0.9712099 3.2258756 2.2930443 1.8781666 1.9765646 2.0894847
2.8552303 1.943196 3.721958 1.9772227 2.2328076 2.904786 3.291448 1.6637527
1.1842508 1.9828112 1.5670418 1.6401815 0.9274953 1.2781012 1.3219472 1.5174904
2.353827 1.6901581 1.921657 2.0455923 1.9878796 2.1327758 2.0674398 2.1567485
3.075722 2.7526677 2.3541093 1.4814471 2.3373058 1.4868121 3.6486213 1.2320307
1.6814067 2.3984554 1.0145023 2.4242678 3.8032882 1.7922169 3.1707788 2.353186
2.2752662 1.6099637 2.325058 1.9440086 1.7790719 2.727641 2.5276542 2.7595537
3.5088353 3.6954303 1.689826 3.360157 1.9885004 1.7735412 1.9393591 2.3073776
2.234035 2.9430144 1.9456784 1.3673 3.0509923 2.6265082 3.5087287 1.9526587
2.9182642 4.6680603 2.6950755 1.7089757 2.05833 1.1093799 1.9499912 1.7202573
2.3582041 1.4777772 1.185119 3.6107876 4.10036 1.4580256 2.0275238 1.8083096

network.4.weight f4 [128, 256]
00000000: 85a3 cdbc 1417 98bd 931e 2d3e 1b47 7e3d
00000010: f315 1abe a074 c63d c473 27be 60c4 86bb
00000020: 9c84 943d 7ea9 1c3b bbf3 2b3e 8d52 14be
00000030: 7759 71be a0c1 893c 4c63 2ebe 8276 07be
00000040: 8d82 5cbd c88f 653c 7aa7 8e3d 167e 41be
00000050: 53d7 ef3d cb06 bfbb 9604 33be 8921 623d
00000060: ecf7 1d3e 121a ac3d c868 513d 0359 ca3d
00000070: 9e58 96bc f595 d13d 76d0 b93c ae5c a0bc
00000080: 95c4 5ebd c486 f53d 77a5 9d3d cf5a 8abd
00000090: 443c 79bd 6d1c 12bc 066f 9f3d 6e3c 69bd
000000a0: 502f c2bd 6b09 10bc b1b3 09bd 3cc1 053e
000000b0: 650c 273d 647b 3dbd 38dd 1abe 22fb 97bd
000000c0: aacd 7b3e 9f81 ef3c 4c40 15be 58d4 083e
000000d0: 66cd 623b 2d55 023d 3499 d43c 088b 95bd
000000e0: d7e8 373e 1488 76bd a5a4 ec3c e4b5 093e
000000f0: e167 873e ea8a 073e 92e5 873d 5cba ba3c
00000100: 7151 55bd ce51 223e 6ae1 8abd 5b7b 203e
00000110: cf49 bf3c 90cd be3c 009d 813b 426e 14be
00000120: 8c19 813d 3c70 6ebd 6c71 223d 4fa9 2abe
00000130: 429a 07bb b1f2 a73d 1414 703d 9054 de3d
00000140: a8c3 edbd 93a7 f9bc 1831 253e b320 ec3d
00000150: 79c5 ec3d 18fa 153d 7521 72bb 91fa 03bd
00000160: 4e78 febc 3577 1dbd fe6d 583d 6c7f c73d
00000170: 53eb 59bb 4f63 9f3d 8ad3 993c bae6 1d3e
00000180: 89c7 e93d 104c babc 604a 333e 21bd 7fbc
00000190: fd39 ecbd 8c35 06be 20e2 cabb 6793 9dbc
000001a0: cb24 03be d275 463d 5926 343e e241 b03c
000001b0: 4371 11bc b63d 1bbe 7a6d 27be ced1 8abd
000001c0: 1c98 cdbd 2834 93bd 1a75 5bbd 85b0 a4bc
000001d0: 7e36 133e d41f 8fbd 829f 8a3d 8754 88bd
000001e0: 6da0 e63d f4ae b9bd 7e86 26bd b362 a13d
000001f0: ac1c 6d3d fe11 84bd ac59 6cbc ed0b 17bd
00000200: 97e1 bc3d 5ca1 a9bb ca81 c43d 6479 1e3d
00000210: 0e05 6dbd 9753 303c 7617 a73d 98d2 4bbd
00000220: 56af 883e fb94 ac3c b529 02be f481 fb3d
00000230: 4401 86be 98b1 85bd 0a11 193e 5cdf b13d
00000240: 1f17 d9bb 3ee5 823d 9a18 023e 5acf 723d
00000250: 833d 56be 9d9a 9d3d 78dd b3bb 0bc0 bd3d
00000260: 9145 adbd 1906 b63d 1d83 bfbd bd40 bcbd
00000270: d1b1 e03d 3a87 28bd e2f1 303d 5459 863d
00000280: aa6f 24be ae8a 1e3e 9055 113e b628 aebc
00000290: 6b32 5dbc 7015 a83c 838a 1dbe 8332 22bc
000002a0: 7da5 f43d 7fef c1bd 714f 37be 90b3 5d3e
000002b0: 526f 423d b9e7 85bd 34b0 c53d b4c7 94bd
000002c0: 3499 eebc 30ef 793c 55dd ddbd 78be c2bb
000002d0: d6b9 b83c e55b 983d cb65 10be 610a 44bc
000002e0: 7ff4 a43d 1e88 81bd 33fd 3f3d 3d1a df3d
000002f0: 4ccf e9bd 945e e4bd c63f 3ebe ecae d2bd
00000300: 3e32 d5bb f2f8 b9bd 431b 5a3d 3ea7 65bd
00000310: 2eb9 20bb cce7 9bbd 6aa9 bcbc bc0b b5bd
00000320: 7bef bcbc da39 04bc 26cc 6fbc 92fe 693e
00000330: 9cfa 9fbd c357 28be 1452 9f3d 83ee 49be
00000340: a831 99bb 0d10 93bc c3ad 6b3e 3d5b 833d
00000350: 9096 00bd d809 71bd 161f 33be c800 213e
00000360: b5ac 09be e63e 533e 259d 22bd d445 73bd
00000370: 4c29 563d b13e 0abe 257b a43a ed58 3fbd
00000380: cb8f 333d 7b3e b23d 0842 013e 1736 263d
00000390: 22ba 243d 141d 803c 0bbb bfbd 90ac babd
000003a0: c7a1 a33d 25fd 3e3e 201d 973c 06c7 2b3e
000003b0: 7040 6abd fba1 70bd 2c86 f83c cae5 f8bd
000003c0: f504 f73d 1c0e 53bd ab46 bebd 4111 bb3d
000003d0: b612 bb3d 0f18 1bbd 0e99 a1bd cb2c 193e
000003e0: 72ff 56be 339a 183e a792 6cbe 0c07 83bc
000003f0: 473e 0bbd 9773 11be 664c 5dbd 81eb 403d
-0.025102386 -0.07426277 0.16906194 0.06207953 -0.15047435 0.09690213 -0.16352755 -0.004112765
0.07251856 0.0023904736 0.16792195 -0.14484616 -0.23569284 0.01681596 -0.17030066 -0.13228801
-0.05383544 0.014011331 0.06965537 -0.18895754 0.11710992 -0.005829667 -0.17482218 0.055207763
0.15426606 0.0840341 0.051125318 0.09880259 -0.018352803 0.1023368 0.02268241 -0.019575443
-0.054386694 0.11988595 0.076975755 -0.067556016 -0.06084849 -0.00891791 0.07784848 -0.056942396
-0.094816804 -0.008791308 -0.033618633 0.13061994 0.040783305 -0.046260253 -0.15123451 -0.07420947
0.24590173 0.029236613 -0.14575309 0.13362253 0.003460729 0.03181951 0.02595196 -0.07301909
0.17959915 -0.060188368 0.028887102 0.13448292 0.2644644 0.13236585 0.06635584 0.022793941
-0.05207962 0.15851519 -0.067812756 0.15672056 0.023350624 0.02329138 0.0039554834 -0.14495185
0.06303701 -0.058212504 0.03965895 -0.16666149 -0.002069131 0.082005866 0.058612898 0.10855973
-0.11609584 -0.030475413 0.16132009 0.115296744 0.115611024 0.03661546 -0.0036946211 -0.03222138
-0.031063225 -0.038443763 0.05283927 0.09741101 -0.0033251836 0.077826135 0.018777627 0.15420046
0.114150114 -0.022741348 0.1750884 -0.015609057 -0.11534498 -0.13106364 -0.006191507 -0.019235326
-0.12807004 0.048452206 0.17592753 0.02151579 -0.008877101 -0.1516026 -0.16350356 -0.06778298
-0.10038778 -0.071876824 -0.053578474 -0.020103702 0.14376256 -0.069884926 0.06768705 -0.06656747
0.112610675 -0.09066573 -0.040655605 0.078801535 0.05788867 -0.06448744 -0.014425676 -0.036876608
0.09222715 -0.0051767062 0.09595068 0.038689986 -0.05786615 0.010762117 0.08158772 -0.049761385
0.2669627 0.021067133 -0.12711222 0.12280646 -0.2617284 -0.06528014 0.14947906 0.086851805
-0.0066250707 0.06391381 0.12704697 0.059279777 -0.20921902 0.07695506 -0.0054890476 0.09265145
-0.08460534 0.08887882 -0.0935118 -0.09192035 0.10971416 -0.041144587 0.043199427 0.06560007
-0.16058221 0.1548259 0.14192796 -0.021259647 -0.01350079 0.020518035 -0.1538487 -0.009899738
0.11945627 -0.094695084 -0.17901398 0.21650529 0.047469445 -0.06538338 0.09652749 -0.07264653
-0.029125787 0.015254781 -0.10833231 -0.005943116 0.022549551 0.074394025 -0.14101331 -0.011965365
0.080544464 -0.063247904 0.04687233 0.108936764 -0.11416492 -0.11150852 -0.18579015 -0.1028727
-0.0065062335 -0.09080686 0.053248655 -0.056067698 -0.0024524438 -0.07612571 -0.023030002 -0.08840129
-0.023063412 -0.0080704335 -0.014636075 0.22851017 -0.07811472 -0.16439728 0.07779327 -0.19719891
-0.004675109 -0.01795199 0.23015504 0.06413887 -0.031393588 -0.05884728 -0.17492327 0.15722954
-0.13444789 0.20629463 -0.039700646 -0.059392765 0.052285478 -0.13500477 0.0012548907 -0.046715666
0.043838304 0.087033235 0.12622845 0.040578928 0.040216573 0.015638866 -0.093618475 -0.09114945
0.07989841 0.18651254 0.018446505 0.1677514 -0.05719036 -0.058748227 0.030337416 -0.12153204
0.12061492 -0.051527128 -0.092908226 0.0913415 0.09134428 -0.03786474 -0.07890521 0.14958493
-0.20995882 0.14902572 -0.23102818 -0.015994571 -0.03399494 -0.1420425 -0.054027937 0.047099594

network.4.bias f4 [128]
00000000: 64b6 da39 a58e bd39 3835 cbb8 03e1 3bba
00000010: b7b2 9539 affc 88b9 84f4 5eb9 9c3d c6b7
00000020: 1aac b5b8 2572 cdb9 29d1 e638 2282 00ba
00000030: 298d 90b9 d9fe 1cba 04b9 10b9 9bff cab9
00000040: f8a9 b537 22f7 33ba 705f 1538 e7d6 9f38
00000050: 0322 2739 9de2 063a f9a7 a6b7 2e9d 2a39
00000060: 7d90 85b9 f9ad 0bba 2e91 cfb8 f56f e3b9
00000070: 2a51 0f3a 3106 7839 d4b0 c1b9 93ed 35b8
00000080: 4d77 0439 6c4a c438 e166 8939 5ba4 4a39
00000090: 2b82 7839 2da1 1fb8 1dae 19b9 5f3f a338
000000a0: 179a 5138 a457 83b9 50a4 0fb9 0f4e 8bb7
000000b0: 6486 9fb8 9585 20b9 6526 d7b9 491e 0f38
000000c0: 4e63 3a39 d1c9 bd37 b443 b4b9 646c a6b7
000000d0: 2f82 d4b9 30c7 a038 0c59 dcb9 2f5f 9cb9
000000e0: c0d7 b3b9 1f56 a639 8bac 40b8 3d29 9bb9
000000f0: 68fe 15b9 410c a639 c182 7839 3502 81b7
00000100: fc1f c239 ad24 3738 6587 9539 c034 8039
00000110: c1d6 2a39 f918 9139 e5b8 2439 52ad abb9
00000120: 948c 8a39 56bc 09b9 9360 8e38 7e82 9db9
00000130: 5661 69b9 08d7 51b9 06ab 4336 63f1 68b6
00000140: 2fe2 e039 d37e 10b9 1bad 33b7 30d5 4fb8
00000150: 7cba 97b9 cf2b 6aba 2c62 95b9 8b0e 7839
00000160: be80 97b9 ccfa b5b9 90e6 02b9 e32c 24b7
00000170: 606e 83b9 368f 16b9 2912 7d39 6d06 11ba
00000180: a001 03b9 9c06 3ab8 00bb 93b8 8cc4 1139
00000190: b020 d439 803f c739 526f 1739 05a4 ca38
000001a0: ba85 79b9 9b41 ea38 0e08 4238 fbf7 9fb8
000001b0: 1836 fe38 2b2c 0d39 1c78 4039 d4ac 6ab8
000001c0: e6c3 9739 7b72 b5b8 cc8f b539 ffe9 da39
000001d0: d459 b6b9 ac1d 5a39 a8af a7b9 8363 87b9
000001e0: 2e47 05b9 3947 71b9 7830 abb9 ed51 b638
000001f0: 4d1f 98b9 f079 9e39 7c98 8638 6fd0 2e39
0.00041716092 0.00036155168 -9.689707e-05 -0.0007167013 0.00028552648 -0.00026128205 -0.00021262659 -2.3632128e-05
-8.662809e-05 -0.0003918569 0.00011006214 -0.0004902204 -0.00027570993 -0.0005988903 -0.00013801834 -0.00038718883
2.165603e-05 -0.0006865134 3.561325e-05 7.6217395e-05 0.00015939031 0.00051454623 -1.986696e-05 0.00016271017
-0.0002547539 -0.0005328353 -9.897571e-05 -0.00043380228 0.00054671115 0.0002365343 -0.00036943576 -4.337502e-05
0.00012632944 9.3598705e-05 0.00026207327 0.00019325448 0.00023699614 -3.805866e-05 -0.0001465608 7.7842495e-05
4.997299e-05 -0.00025051564 -0.00013698754 -1.660644e-05 -7.606743e-05 -0.00015308552 -0.00041036602 3.4122062e-05
0.00017775336 2.2624534e-05 -0.00034382718 -1.9839215e-05 -0.00040532785 7.666496e-05 -0.00042028015 -0.00029825556
-0.00034302287 0.00031726153 -4.593706e-05 -0.0002959463 -0.00014304521 0.00031671117 0.00023699833 -1.5379026e-05
0.00037026394 4.3664757e-05 0.0002852037 0.00024453364 0.00016292465 0.0002767516 0.00015709137 -0.00032744795
0.0002642615 -0.00013135499 6.789076e-05 -0.00030042598 -0.00022256872 -0.00020011899 2.9156813e-06 -3.47112e-06
0.0004289313 -0.00013780156 -1.0709536e-05 -4.9551192e-05 -0.00028939906 -0.00089329196 -0.00028492638 0.0002365654
-0.00028896885 -0.00034709868 -0.00012483657 -9.785613e-06 -0.00025068503 -0.00014358465 0.00024134725 -0.00055322686
-0.00012493739 -4.435201e-05 -7.044338e-05 0.00013901497 0.00040460145 0.0003800355 0.00014441952 9.6626616e-05
-0.00023796308 0.000111702095 4.6260706e-05 -7.627901e-05 0.000121217396 0.00013463262 0.00018355291 -5.5950906e-05
0.0002894692 -8.652076e-05 0.00034630147 0.0004175454 -0.00034780672 0.00020801154 -0.00031983596 -0.0002582335
-0.00012710385 -0.00023010084 -0.00032651774 8.693696e-05 -0.0002901502 0.0003022696 6.41802e-05 0.0001667158

network.5.weight f4 [128]
00000000: e9ea 853f ee3b 773f 46b0 693f 845b 7d3f
00000010: 2cb7 853f 1990 843f a5d4 803f 0745 823f
00000020: 8dd8 843f ac6b 673f a1c5 613f cf4f 693f
00000030: 1c67 813f 6b33 713f bbca 843f 04e4 6d3f
00000040: 0357 7d3f acba 7d3f 3e49 863f 2f3e 883f
00000050: 202e 843f e6ac 753f d488 793f 1319 823f
00000060: 3c7e 793f a67a 7b3f 8a30 823f ca11 623f
00000070: a921 843f ca15 893f d6ab 603f 599c 813f
00000080: 8b4a 743f c129 913f 4002 7a3f 34f7 813f
00000090: 644f 823f 16d4 853f 7b7c 6a3f 1e79 753f
000000a0: 554e 683f 427a 743f 7985 7b3f f904 793f
000000b0: 5f59 633f dd01 7f3f 6540 763f 87fb 7d3f
000000c0: aa5b 883f e158 823f d788 7b3f 906a 8d3f
000000d0: bfad 873f 9854 883f efe7 733f 5eba 803f
000000e0: 4670 773f 898d 733f 31ef 8e3f 5c0a 873f
000000f0: c7c2 7c3f 2c89 6e3f 1c89 733f 7e5e 843f
00000100: 3819 743f f5b7 7e3f ba5b 733f e5bb 7f3f
00000110: 8d34 753f dedb 7d3f e960 793f c70b 8f3f
00000120: 6ddf 7d3f ae29 7e3f beca 753f 3e7d 803f
00000130: ee19 7b3f fb2e 7e3f cd71 733f 7294 643f
00000140: ac34 7e3f 6177 873f 0ded 863f f9fe 733f
00000150: 2f59 873f 35a4 793f f5d6 923f 318d 833f
00000160: 3af4 623f a957 833f 80ba 723f 59af 823f
00000170: 1b6b 813f ce65 803f 04c6 613f 9664 7a3f
00000180: cc76 823f 96fd 7c3f 376c 7f3f 3e13 863f
00000190: 5610 693f 8552 763f 903f 933f b899 883f
000001a0: d26a 863f f456 6d3f 403e 663f 8f78 633f
000001b0: 0e7c 703f 576e 7c3f 436e 823f 4b30 863f
000001c0: 7c0f 883f 6474 673f c0e7 773f 740f 7d3f
000001d0: 755a 833f a0f9 853f 550d 853f acd5 813f
000001e0: 1e56 803f da8e 823f bb0b 743f 09cf 803f
000001f0: 9c2a 783f 13be 6e3f 6c26 7d3f 27f2 823f
1.0462314 0.9657582 0.91284597 0.98967767 1.0446525 1.0356475 1.0064894 1.0177315
1.0378586 0.9039867 0.8819218 0.91137403 1.0109591 0.9421908 1.0374368 0.9292605
0.98960894 0.99112964 1.0491102 1.0643977 1.0326576 0.9596695 0.9747441 1.0163902
0.97458243 0.9823402 1.0171063 0.88308394 1.0322772 1.0709774 0.877622 1.0125839
0.95426244 1.1340867 0.97659683 1.0153565 1.0180478 1.0455348 0.9159619 0.95887935
0.90744525 0.9549905 0.9825054 0.9727321 0.88808244 0.9961222 0.9619201 0.99211925
1.0652974 1.0183374 0.98255676 1.1048145 1.0599898 1.0650816 0.9527578 1.0056875
0.9665569 0.9513784 1.1166745 1.0550036 0.98734707 0.9317806 0.9513109 1.0341337
0.9535098 0.99499446 0.9506184 0.9989608 0.9578331 0.99163616 0.974135 1.1175469
0.99169046 0.9928235 0.96012485 1.0038221 0.9808644 0.99290437 0.9509552 0.8928901
0.9929912 1.0583307 1.0541092 0.9531093 1.0574092 0.97516185 1.147185 1.0277463
0.8865391 1.0261127 0.94815826 1.0209762 1.0110811 1.0031068 0.8819277 0.9780973
1.0192504 0.9882444 0.997745 1.0474622 0.9104055 0.96219665 1.1503773 1.0671911
1.0501349 0.92710805 0.89938736 0.8885583 0.9393929 0.98605865 1.0189899 1.0483488
1.0629725 0.90411973 0.96838 0.98851705 1.026198 1.0466805 1.0394694 1.0143332
1.0026281 1.0199845 0.953304 1.0063182 0.96940017 0.9325878 0.9888675 1.0230149
